Udacity Project/Deep Reinforcement Learning/Navigation/checkpoint.pth (torch_old, 28463 bytes, 6 tensors)

fc1.weight f4 [64, 37]
00000000: 1bd9 073e 1205 08be 7283 51bd 4cc6 02be
00000010: 23c1 eebd 5448 a7bc ca2c 953d faed 223e
00000020: c4a2 13be 1d08 423d d51c dd3d 273a 14bd
00000030: 4cc7 80be ccfc 90be eed7 e9be 3302 94bd
00000040: e7a1 943d 7fec 383e a425 1ebe 6cc3 053e
00000050: c3ee 033e 5c4a 1f3d 6eac 1e3d a2f6 a73d
00000060: 2c86 e6bd 5515 b2be 90b1 2b3e 8ae9 203e
00000070: 30db 07be cd91 c63d b580 b73c fd60 be3d
00000080: 3d74 fc3c beb4 1cbf a289 c1be c6c8 e23b
00000090: 66f1 84bc 43f6 c33d 13b7 753d 53af bb3d
000000a0: 1db9 503e 311f 173e b818 fe3d 0d32 75bd
000000b0: 1957 56be b553 69be f492 90be 5f20 923b
000000c0: d255 113d 385e 903a 83c3 5a3e 7b67 a53d
000000d0: 4e26 843e eafc 4dba 829e d4bd 44da ffbd
000000e0: 2813 61be 8306 05be 57e1 dbbd afd2 a7ba
000000f0: 5714 ef3a 4632 b03d b2e5 09bc bc43 1a3e
00000100: 1cc6 4fbd 4162 0c3d 65b4 e73d 8109 d53d
00000110: 8e54 253e 3b80 093e 13b3 c9bd 39b8 80be
00000120: 9926 7a3c 7bf6 373d 4f9b 96bd 03bd b63d
00000130: e487 8c3d ac5d 083e cfd2 863c c49c 82be
00000140: e27c 5bba 9d15 a43b d13e 903e 2c85 4b3e
00000150: cce4 10be c55a bf3d b5c2 3abd 8f8b fb3d
00000160: 8aef 8e3e 327d 52bd 3523 e8bd 2939 2b3d
00000170: c23b 553e 60bc b23d 0f81 0fbd e150 cdbe
00000180: acbb 653e dcf4 c5bd 4904 9c3d 20c1 80be
00000190: 96c5 843e 7b40 dc3d ffd1 adbd 2905 a9bc
000001a0: 4f41 82be bab1 75be 8969 dc3c 9571 333d
000001b0: 39f6 163e a122 dbbc 5681 a2bc 66e3 aa3d
000001c0: 1938 0d3e 559b 023d 6263 4b3e 66a1 fbbd
000001d0: 44d0 f1bc e7c7 c2bd 9485 0a3e 618c 863d
000001e0: 5347 b03d 5e5d 253e 23cb 5abc 0b5d 443c
000001f0: e827 00be 624e c2bd 4b64 1f3e 773d afbe
00000200: c48d b23c e1ea a2be d9ce 8cbf 75a4 e53c
00000210: 5c9a 92bb 723a ec3b de2f 3e3e 0f8a 2abd
00000220: b6d2 443d afa8 273d 1577 2abc 4c8b 843e
00000230: 4c72 a53e 3ddc e23d 96c1 733e d360 ef3c
00000240: bf67 febd 8a6d 85bd 3448 6f3d 22e6 babc
00000250: ff39 23be c09c 32be b45f 08be f4cf 013b
00000260: 6793 773d 060d 0b3e e39d d33d 0091 dabc
00000270: d3bb 67be 330c b8bd 0ca7 0e3c 9834 0fbd
00000280: 929e 7cbd eef8 11be 5435 80be 2ba0 5ebe
00000290: 20af f13c fcf4 b03c 9e10 05bd 9fbf 673e
000002a0: 5c0c a5bc 80a3 d4be 1a60 18bc 603d 5c3e
000002b0: 7f71 613f 1dc5 333d dd17 eebc 7104 8dbd
000002c0: 78e4 f13c 2b66 0e3e 43d4 213e edab 54be
000002d0: 8370 77bc 8d59 b83d bdb7 b33e f3f4 2cbd
000002e0: 8e40 2d3b f485 0e3e 1b06 eabd 402e 3d3d
000002f0: 366d 56bb 45b9 8f3e 6be9 ba3e 8a4d 493d
00000300: c4a8 81be 6f9b bebe 133c aebf b4ee 8cbd
00000310: e698 f0bc 83b5 60bc c254 beb8 eef1 993d
00000320: 78ab 99bb f675 f13d 1edd a8bc 3ec8 c83b
00000330: d888 6e3c ec97 f03d 354c a13d 479d ff3d
00000340: 90df 2b3e 0db3 323e 2acd bebd f61f b63d
00000350: 84aa a03d 16ae ac3d 9263 3c3e 6450 373d
00000360: caea 16bd 3f10 6d3d a42b 7fbd e6b0 a3be
00000370: 1ca7 003c 4067 47bc e301 42bd bd2c cd3b
00000380: 38f7 cabd 594d e1bb 481a 47bd 78ee 89be
00000390: fd35 51be e6fd 3d3e 284b 413e 9e7f bf3e
000003a0: 27e8 d6bd f447 013e 740c 093e bfe2 15be
000003b0: 6270 913d 7c4e 46be f71b 08be ded8 df3d
000003c0: 9034 92bc e2e0 993e dd0c 88bd 56cf b1bc
000003d0: 4cb4 acbd c79c 783d 7d32 b03d 8513 67be
000003e0: cec9 50be 8592 f33d f805 62bd ba35 ea3d
000003f0: 738f ebbd 8bf2 a5bc 6bee 483d 7af8 093e
0.13266413 -0.13283184 -0.051150747 -0.12770957 -0.11657932 -0.02042023 0.072839335 0.15911093
-0.14417559 0.04737102 0.10796515 -0.03618827 -0.2515205 -0.2831787 -0.45672554 -0.07226982
0.07257443 0.18058966 -0.15444046 0.13062829 0.12884049 0.038889274 0.03873866 0.08201338
-0.1125606 -0.347819 0.16766953 0.15714088 -0.13267207 0.09695778 0.02240024 0.09295843
0.030817145 -0.6121329 -0.37800318 0.0069209067 -0.016228389 0.09568455 0.059989046 0.091643
0.20383115 0.14757992 0.124070585 -0.059862185 -0.20931663 -0.22785838 -0.28237116 0.0044594253
0.035482235 0.0011014408 0.21363644 0.08076378 0.25810474 -0.00078578165 -0.103817955 -0.12492803
-0.21979964 -0.12990765 -0.107363395 -0.0012803877 0.0018240315 0.08603339 -0.00841658 0.15064901
-0.05072604 0.03427339 0.113137044 0.10402203 0.16145536 0.13427822 -0.09848609 -0.2514055
0.015267991 0.044912796 -0.073538415 0.0892277 0.068618566 0.13316983 0.016457943 -0.25510228
-0.0008372796 0.0050074593 0.28172925 0.1987502 -0.14149779 0.09343485 -0.045595843 0.12282478
0.2791713 -0.051388927 -0.1133484 0.04180256 0.20823577 0.08727336 -0.03503519 -0.40100768
0.22434872 -0.09665844 0.07618005 -0.25147343 0.25931996 0.10754486 -0.08487319 -0.020632343
-0.25440452 -0.23993579 0.026905792 0.043809492 0.14742364 -0.02674991 -0.019837063 0.08344154
0.13790931 0.031886417 0.1986213 -0.12286644 -0.029518254 -0.095107846 0.13527519 0.06569744
0.08607354 0.16148898 -0.013354096 0.011985074 -0.12515223 -0.094876066 0.15565602 -0.3422658
0.021796115 -0.31819823 -1.1000625 0.02803252 -0.0044739675 0.0072091157 0.18572947 -0.04163557
0.048052512 0.040932354 -0.010404368 0.25887525 0.32313764 0.11077163 0.23804316 0.029220974
-0.12422132 -0.065150335 0.058418468 -0.022814814 -0.15940093 -0.17442608 -0.13317758 0.0019807788
0.06044331 0.13579187 0.10332849 -0.02668047 -0.22630243 -0.08986702 0.008706819 -0.034962267
-0.061674662 -0.14255115 -0.25040686 -0.21740787 0.029502451 0.021601193 -0.03248655 0.22631691
-0.020147495 -0.4153099 -0.009300256 0.21507788 0.88063806 0.043889154 -0.029064113 -0.06885613
0.029527888 0.13906161 0.15803628 -0.2076871 -0.0151025085 0.090014555 0.3510112 -0.04222579
0.0026436183 0.13918287 -0.11426946 0.046186686 -0.0032718903 0.28071037 0.3650621 0.049146213
-0.2532407 -0.3722796 -1.3612083 -0.068814665 -0.029369783 -0.013715151 -9.0756934e-05 0.075168476
-0.00468963 0.117900774 -0.02061325 0.0061273864 0.014558993 0.11747727 0.078758635 0.1248117
0.16784501 0.17451115 -0.09316476 0.08892815 0.07845023 0.08431642 0.18397358 0.0447544
-0.036845006 0.05787682 -0.06229748 -0.319709 0.007852342 -0.012170613 -0.04736508 0.0062614367
-0.099104345 -0.0068756756 -0.048609048 -0.2693975 -0.20430751 0.18553886 0.18876326 0.37402052
-0.10493498 0.12625104 0.13383657 -0.14637278 0.071015134 -0.19365877 -0.13291918 0.10930036
-0.01784733 0.30054384 -0.066430785 -0.02170531 -0.084328264 0.06069639 0.0860338 -0.2256604
-0.20389482 0.11893181 -0.055181473 0.11436029 -0.1150197 -0.020257255 0.049055498 0.13473693

fc1.bias f4 [64]
00000000: a536 253e 3fdb bd3b 2aef 68be 9286 9fb8
00000010: 6bdf 1f3e e680 b83c 8bba 1cbe 280d 3b3d
00000020: b88e 2a3b 4766 24be ea64 1d3e 5621 2f3e
00000030: 8574 123e b6f5 d33d 891b 14be 42a5 26bd
00000040: 658e b93d 1743 db3b 67cd 173d 801f 40be
00000050: 8c58 21be 42ae a83d e624 053d 75b4 f3bd
00000060: 86ac b9bd e864 463d f4a3 74bc a004 34be
00000070: 03d1 5b3e 5d5a 173e bb77 13bd b67d 65be
00000080: 560e 253e 7fa6 90bd dc77 08be eaee 2f3d
00000090: 7029 cb3c 76b9 f93d 5eb9 88bc 4ea3 a5bd
000000a0: 098d 78bd 1505 5c3d 2b19 acbd 7f08 2e3e
000000b0: 971e 0e3d 1721 0abe 8553 61bc cf24 70bd
000000c0: 5df8 f5bd 085b 823a 0df7 2dbe b68b 313d
000000d0: 59df 243c 9ed0 b4bd 335b 50be 6f63 803d
000000e0: cb54 943d ef44 64bd 9cd8 60bd 5a96 9dbd
000000f0: ee18 b23c 878a 033d 2172 353d a4fb 1c3d
0.16134126 0.0057939584 -0.22747484 -7.6067765e-05 0.15612571 0.022522401 -0.15305535 0.045666844
0.0026025008 -0.1605464 0.15370527 0.1710256 0.14302261 0.103496 -0.14463629 -0.040684946
0.09060363 0.0066913473 0.03706112 -0.18762016 -0.15756434 0.08236362 0.032505892 -0.11899654
-0.09066109 0.048436075 -0.014931668 -0.1757989 0.2146645 0.14780565 -0.036002856 -0.22411236
0.1611875 -0.070630066 -0.13326973 0.042952456 0.024800032 0.12193577 -0.016689952 -0.080877885
-0.060681377 0.053715784 -0.08403238 0.16995429 0.03469714 -0.13489185 -0.013752823 -0.058628853
-0.12010262 0.0009945342 -0.16988774 0.04334613 0.010063016 -0.08828853 -0.2034729 0.062689655
0.072427355 -0.055729803 -0.054894075 -0.07694693 0.021740403 0.03211453 0.044298295 0.03832592

fc2.weight f4 [64, 64]
00000000: 1767 aa3d 45a9 863d 4a09 56bd a8de d1bc
00000010: 45b9 443e 86f8 113d e521 32be 2be2 003d
00000020: 1241 96bd 5cbc 3e3d 28c6 95be 5559 e0bd
00000030: aa44 86bd eafd 023e 0d37 bd3d b4b1 93bd
00000040: 8f66 04be 1270 33bf 949a b03c 307b 97be
00000050: 1d02 953c d718 6dbe 296f 293d 2017 423e
00000060: 05f2 61be 4bbf 9d3d 3089 5b3d 4e3b 32be
00000070: f8ec 8abb b7c7 023d 66f2 edbc 3a29 6fba
00000080: 6956 3f3c fc0e 6a3e 04e1 873b b06c 8fbe
00000090: aaa9 3cbd 857b 493e cec2 163f ff1e debd
000000a0: 65be c8bd 525b f6bd 07cd a0be b0e1 45bc
000000b0: 253b 283d 2b17 09be 3e6b 5bbe 014d c13d
000000c0: 1a75 0ebe 9c56 2d3e cc90 d4bd dce2 a6bd
000000d0: 4a13 3fbd 8b3a a3bd 7017 6c3e 5217 98bd
000000e0: 215d 88be 74a8 cabc 399e b9bd 2b1e 38be
000000f0: 36c1 213e 77f4 ea3d 50a6 7bbe 9e19 dcbc
00000100: f7fc 5f3d f35f d83d b48d 05bd 1d4f 5bbc
00000110: de54 913c bf9d 433e f606 89be c9ac b83d
00000120: a1cc d8bd 48e0 8ebe 8c8b 303d 9e65 703e
00000130: 8aa3 95be e4c0 73bc 330e b13d 31b7 363d
00000140: 9db8 183e 1fef d23d cf83 ccbd c71a 3a3e
00000150: d4b5 ad3d 56e5 91bd 46bc af3e 7611 373d
00000160: a4bb a1be e2cd 4d3e 8378 17be c559 2ebd
00000170: 3c77 8a3d 84a1 693e 6e56 bebd bca7 223e
00000180: d7e1 f63c 660e 21bd 7e10 2cbe c775 13bd
00000190: 9356 9cbd 87ae 29be 5813 36be 8568 d0be
000001a0: 14a9 d7bd a419 1ebf 673e 1abe 98ec b0bd
000001b0: 47a1 aa3d 28d9 09bd b9ba 1fbe 2592 46bc
000001c0: 981f 03bb 92ed 85be 9edb 90bd 6148 d93d
000001d0: d306 95bd 95c0 c13d 9116 0a3d c956 323d
000001e0: d3d2 cbbd d029 6dbc f815 4d3e 5189 60bc
000001f0: 26ee 7ebe 1252 43be d6c6 50bd 5061 6bbe
00000200: 3d03 01be 2bf2 52bd 6335 433e ca5e cc3d
00000210: a5cc abbc e179 053d 570a 17be 3e54 81bb
00000220: f6d0 143d cd9e 81be 0203 99be 5b8e 7dbd
00000230: 29c7 2a3d 4ac2 f63c e513 47bd d45c 16bd
00000240: 707f f3bd 6f49 5dbd 75f5 223a bfa5 8bbd
00000250: d9ba 22be 828b d63e a485 c53c fcdf 01be
00000260: 1562 d4be f4c0 afbc 53aa fb3d ae96 f73b
00000270: 7741 54be e569 143e cdbc 24bd fa4f f3bd
00000280: 009b 343e a1a4 87bd decd 3dbe 5f74 b83d
00000290: b6b4 a43d 0a61 cf3d 2e63 1fbd 646a 5fbe
000002a0: c73f 3a3e 31c2 acbc dec7 1a3d 6724 2ebc
000002b0: d46b 8cbc ff20 f43d 4888 273c 7901 66be
000002c0: fb13 be3d cf14 0fbe d907 82be 61c0 abbd
000002d0: 3936 30be 43cd 523e 723f 80be 9722 26bd
000002e0: 38c1 f0bd d14d 74be bfbe 69be 201e 293e
000002f0: 5425 2cbe e70d 5cbd d1a5 e03d 58d1 903e
00000300: c030 8f3c 2b30 46be d685 10be 0015 e13c
00000310: 300c c5be e933 873c 7d7b 483d e3a2 f8bd
00000320: 499f 4ebe 07d1 1bbe c876 293d 8ea5 353e
00000330: 1dc7 3fbe 4a4a c1bd bdc3 53be b3fd 123e
00000340: d879 bebd f275 09bd e0ba 263d e530 78be
00000350: c98d 8d3e c0ad ff3c 527a 63be a40a f73d
00000360: 430a 473e 59d9 903d 1ecb 8c3c 54c6 ccbe
00000370: 3c99 57bc bd72 8abe 30f8 a9be 2943 cfbe
00000380: 1e19 41be 1cb3 08bd 7273 73be 27b5 813e
00000390: ae0f a3be 9f48 0e3e f3a0 643e f0b6 53bd
000003a0: 0cde 48be 3cda 673e 4f33 a23d a1f8 0dbe
000003b0: 856e 89bd 8d7a 97bd 5939 2ebe fcaf 5ebe
000003c0: 9c1c 913d 8854 77bc 85ba aabe f25d 303e
000003d0: 49e6 0a3d e689 a13e 8ac9 a6be 0bf6 803d
000003e0: f014 763d db81 b6be 3df3 3ebe f474 913e
000003f0: df68 033c 3890 fb3d 063a 68be 9bcb 463e
0.08320444 0.06575254 -0.052254952 -0.025618866 0.192113 0.0356374 -0.17395742 0.03146569
-0.0733663 0.046566352 -0.29252744 -0.10954539 -0.065560654 0.12792173 0.09239016 -0.072116286
-0.12929748 -0.7009288 0.021558084 -0.29586172 0.018189484 -0.23154007 0.041365776 0.18954134
-0.2206498 0.07702502 0.05359763 -0.17405435 -0.0042396747 0.031928744 -0.029046249 -0.00091232697
0.011678317 0.22857279 0.004146697 -0.2801261 -0.04606024 0.19676025 0.58891 -0.10845756
-0.0980194 -0.12029137 -0.31406423 -0.012077734 0.04107203 -0.13387744 -0.21427628 0.094385155
-0.13911858 0.1692757 -0.1037918 -0.08148739 -0.046649255 -0.079701506 0.23055816 -0.07426323
-0.26633552 -0.024738528 -0.09063382 -0.17980258 0.1579636 0.11472409 -0.24575162 -0.026867684
0.054684605 0.10565176 -0.03260584 -0.013385561 0.017740663 0.19103144 -0.26763123 0.09017331
-0.10585905 -0.27905488 0.043101832 0.23476264 -0.29226333 -0.014877532 0.086452864 0.0446083
0.14914174 0.10299515 -0.09986078 0.18174277 0.084819466 -0.071238205 0.3432333 0.044694386
-0.3158847 0.2009807 -0.14792065 -0.04256608 0.067610234 0.2281552 -0.09293829 0.15884298
0.030136986 -0.039320372 -0.16803166 -0.036000993 -0.076337 -0.16570483 -0.17780817 -0.40704742
-0.10530296 -0.61757874 -0.15062867 -0.08638877 0.083315425 -0.033654362 -0.15598573 -0.0121198045
-0.0020007845 -0.26157814 -0.07073139 0.10609508 -0.07276692 0.0946056 0.033712927 0.043539796
-0.09952321 -0.014475301 0.20027912 -0.013704614 -0.24895534 -0.19074276 -0.050970875 -0.2298634
-0.12598892 -0.05150048 0.19063334 0.09979017 -0.020971606 0.032586936 -0.14750038 -0.00394681
0.036332093 -0.25316468 -0.29885107 -0.06190334 0.04169384 0.030121941 -0.048602957 -0.03670962
-0.11889541 -0.05402511 0.00062163855 -0.06818723 -0.15891589 0.4190331 0.024111576 -0.126831
-0.4148108 -0.021454312 0.12288346 0.007555804 -0.20728098 0.1449352 -0.040219117 -0.11880489
0.17637253 -0.06623197 -0.18535563 0.09006571 0.080422804 0.101259306 -0.038912944 -0.21817929
0.18188392 -0.021088691 0.037788264 -0.010628796 -0.01714126 0.11920356 0.010225363 -0.224615
0.09281155 -0.13972782 -0.25396612 -0.08386303 -0.17208184 0.20586114 -0.25048405 -0.04056033
-0.117556036 -0.2385781 -0.2282667 0.16515398 -0.16811115 -0.053724196 0.10969127 0.28284717
0.0174793 -0.19354312 -0.14113554 0.027475834 -0.3848586 0.016504245 0.048945893 -0.12140443
-0.2017795 -0.15216456 0.041373044 0.17738935 -0.187283 -0.09437998 -0.20680137 0.14354591
-0.093005836 -0.033559747 0.04070556 -0.24237402 0.27647236 0.03121078 -0.2221463 0.120625764
0.19437508 0.07072706 0.017186698 -0.39995062 -0.0131590925 -0.27040663 -0.33197165 -0.40480927
-0.18857238 -0.033373937 -0.23774508 0.2533352 -0.318479 0.1389489 0.22327022 -0.051688135
-0.19615954 0.22641844 0.079199426 -0.13864376 -0.06710533 -0.073964216 -0.17014064 -0.2174682
0.07085535 -0.015095837 -0.33345428 0.17223337 0.033911023 0.3155052 -0.32575637 0.06296929
0.06007856 -0.35645947 -0.18647476 0.2840954 0.008020609 0.12283367 -0.22678384 0.19413607

fc2.bias f4 [64]
00000000: ab02 8cbd 3e34 19bd 9039 b13d 5068 70bd
00000010: ca49 403e f63e bdbd 1ac2 55bd 70ce cd3d
00000020: f9a4 673e 47ae ee3e a55b ebbd 01c1 e13d
00000030: b5de 083e 22f6 1bbe f5ff c2bd 2e9c 4e3d
00000040: 4827 d4bd 125b 4b3d 9677 59bd c87e e73d
00000050: d4c0 be3d 7ba3 c83e fdd6 15be 89e7 59bd
00000060: af98 0ebe e509 9fbd 9a2f a1bc e9ad 92bd
00000070: d183 d3bb d7f8 773e 1be4 ce3d a1d7 bdbd
00000080: 7983 ccbd 5134 dd3d e8a6 963c 88a4 a8bc
00000090: 4f22 b9bd cd47 e6bd d2fd a43d 184e 863d
000000a0: 3e7f 09be 8420 003f 5dd2 b53e bf4d 29be
000000b0: 1ea6 663e c82d bcbd be07 dbbc c2cd 20be
000000c0: 8681 1c3e 7334 39bd d19f 31be adcd 8e3e
000000d0: df03 8ebb fcd1 d0bd 2d77 d23d 950f 063e
000000e0: 0454 4abe 6aba 13be 3af3 3bbd 48db 05bd
000000f0: e7bf 94bd c2ee bd3d 74c4 f23d 2e0f bebd
-0.068364464 -0.037403338 0.08653557 -0.05869323 0.18778148 -0.092405245 -0.052187063 0.100491405
0.22621526 0.46617338 -0.11492089 0.11023141 0.13366206 -0.15230611 -0.09521476 0.050441913
-0.10359055 0.0496474 -0.05309256 0.113034785 0.09314123 0.39187226 -0.14632793 -0.053199325
-0.13925432 -0.07765559 -0.019676019 -0.07162077 -0.0064549227 0.24216019 0.101021014 -0.092696436
-0.09986014 0.10800994 0.018390134 -0.020586267 -0.09039747 -0.11244164 0.08056225 0.06557864
-0.13427445 0.50049615 0.35512057 -0.16533564 0.22524306 -0.091884196 -0.02673709 -0.1570349
0.15283784 -0.045216035 -0.17346121 0.27891293 -0.0043339576 -0.10196301 0.10276637 0.13091882
-0.19758612 -0.1442658 -0.045886256 -0.032679826 -0.07263165 0.09274055 0.11853877 -0.09280239

fc3.weight f4 [4, 64]
00000000: 1c0b 093e 3d8e 963e 2192 5d3e cc90 03bf
00000010: a1c5 ba3e 6f0d c53e c8db 493d 53ca b0bd
00000020: efa6 103e 7715 3d3e c27d f1bd 2503 f23d
00000030: cda6 ce3d 27fb 7dbc 650c a63c c6be 2bbd
00000040: b4d4 91be 39ed dd3d 2d7b 233f a5a7 763e
00000050: 1605 c73d 9cf7 753e ed4a c8bc 23ce 813e
00000060: 5544 3c3e 045b 82be a6c4 39be 6df1 3cbd
00000070: 9b08 9e3e f9de 013e 016f 22bf c638 8b3e
00000080: f195 0e3d e0d4 d03d 2634 9b3e 3e0c 703e
00000090: f6eb 613e e451 e93d 3998 efbd 8015 513e
000000a0: b489 74bd 724b 4b3e 5151 e83d a8cc 67be
000000b0: 9ad5 ce3d abe6 9bbd cf0b 833d 8429 803e
000000c0: b29d 7dbc d167 7f3e 992d b7be e980 f03e
000000d0: d0f7 813e 7156 bcbd a95e 033e b676 063d
000000e0: 3a1d f4be 375b 7ebc 7a36 59be 3c93 813e
000000f0: 8f71 d6be 8f5c 1d3f 589a 783e a35b 1cbe
00000100: e183 4d3e a9a7 a13e 75c4 7d3e 5a22 95be
00000110: 25fb b43e 257c 663e 04cf 223e 394d 8ebb
00000120: dbc5 bf3d 1407 283e 3a00 40bd 9e33 de3d
00000130: 45bb 233e 116b 2c3e a117 9a3e cded ef3d
00000140: a083 61be 5fad c93d 1036 943e d316 5a3e
00000150: 7e37 183e 8b72 6c3e 7f0c 2dbd 3d6c 8b3e
00000160: feda 7f3e ca22 46be d2d7 afbd 3d53 ce3e
00000170: f8c2 743e e312 033e b4fd 8bbd 2502 aa3e
00000180: f90e d33d 6860 fd3c a05a 863e d692 103e
00000190: ce15 b93e 7c3e 49bc 3a90 8b3e e979 9f3d
000001a0: c728 2ebe 3d9c 4b3e 0d0b fb3d b337 ddbd
000001b0: 98c9 613d bbce 8bbd 0d88 0a3e 5933 f5bc
000001c0: 0a08 c53d 75a6 5c3e 60ff 4fbe 9c5e 923e
000001d0: 2e9a 663e 07ff 19be 8f03 173e a442 1b3e
000001e0: c334 cabe 2b22 9abd fce8 67ba 6626 693e
000001f0: 8a39 3ebd 2d02 bd3e 15fa a1be e03b bbbd
00000200: b971 023f 3851 2a3e 2d90 2f3e 4d14 80be
00000210: 05d8 8d3e d1af 463e 6dd1 8d3e e7e2 ae3c
00000220: db9d 073e 2835 153e 561c a5bc c924 c43e
00000230: 8cf7 123e a992 e6be c0e2 86be fc39 593e
00000240: 6c57 aa3d 046b a0bd 5a5a 913e 8ca0 8fbc
00000250: 98c7 bc3c 8f74 763e fd26 9abe a64b bb3e
00000260: 3e3e 163f b0a3 40be 61ad 3d3d 391c a4be
00000270: 233f 983e 82a3 4d3e 06a4 6fbb 2352 0d3e
00000280: 39e2 c2be a292 08be 5701 283e 517d 973e
00000290: eaff 45bd 7201 23be 7e4a b93d 210f 393e
000002a0: 8de7 98bd a9cc 363e f920 433e f7e3 2fbd
000002b0: 941e be3d b311 12bd 656d 5c3e 6038 8f3d
000002c0: de2c 3d3e 3dd9 f73d 66c5 93be d647 bf3e
000002d0: bd20 c43e ac3d 83bd 5c67 ac3d 7b11 d03d
000002e0: bcf5 d2bd a217 a3be 12dd 4a3e 7142 a03e
000002f0: bfbb 25be 2191 f03e 8a2d 09bf 8edf c5be
00000300: ac25 43bd bcb8 1a3e f15e 153e ce78 52bc
00000310: 3343 243e 725c c03e bff1 39be c00f 433e
00000320: 7e81 843d 83d4 2e3e dcc0 0d3e fc65 813e
00000330: ee2c 173e 9f04 193e 4cbe 163f 3347 893d
00000340: 0cbc 063e 2022 263e 9a6b 0f3f 4422 363d
00000350: 9cb7 e83d 4c5c 983e b150 86be 560c d03e
00000360: 1bac 7d3e 63f2 21be 891d 44be c89f 163b
00000370: 43f5 1d3f 3c76 c5bb db5c b9be 94d2 bf3e
00000380: 08ac 47be 391c d93c 49ff 5a3e 3f31 973d
00000390: a107 de3e 694d 97be 242a e33e 6ad2 d33d
000003a0: 773e 0abf 104a 573e 9895 613e dd45 383d
000003b0: 849b 193e 1c2b aabe 5e07 f73d 1fc6 993d
000003c0: 381a 523e 16da 713e 55ed 9a3e 7447 803e
000003d0: dd34 303e 8657 8bbe 4c82 b23d 6e64 4e3e
000003e0: 17ff a83d 5c72 56be 6ea4 d6be a9bc 80be
000003f0: 8d95 19be d64f 993e 7b1b 003d 572b f63c
0.13383144 0.29405394 0.21637775 -0.5139282 0.36478904 0.38486812 0.049281865 -0.0863234
0.1412618 0.1846522 -0.117915645 0.11817006 0.100904085 -0.015501774 0.020269582 -0.041929983
-0.28482592 0.10836262 0.63859826 0.24087389 0.09717767 0.24020237 -0.02444979 0.25352582
0.18385442 -0.25460064 -0.18141422 -0.04612868 0.3086594 0.12682714 -0.6345063 0.27191752
0.034810964 0.10196853 0.30313224 0.2344217 0.22062668 0.113925725 -0.11698956 0.20418358
-0.059701636 0.19852999 0.11343635 -0.22636664 0.10099335 -0.07612356 0.06398737 0.25031674
-0.015479492 0.24941947 -0.35776976 0.4697335 0.25384378 -0.09196175 0.12829079 0.032828055
-0.47678548 -0.015524677 -0.21212187 0.25307643 -0.41883513 0.6146936 0.24277627 -0.15269332
0.20069839 0.31573227 0.24781974 -0.2912777 0.35347858 0.22508295 0.15899283 -0.0043427018
0.0936391 0.1640895 -0.046875216 0.10849689 0.15989406 0.16837718 0.30096152 0.11715279
-0.22022867 0.09847521 0.28947496 0.21297769 0.14864919 0.2309057 -0.042248245 0.27231017
0.24985883 -0.19349208 -0.08586086 0.4029788 0.239025 0.12800173 -0.068354994 0.3320476
0.1030559 0.03092976 0.26241016 0.14118513 0.36149448 -0.012282964 0.27258474 0.077869244
-0.17007743 0.19883819 0.12257967 -0.108016394 0.055123895 -0.0682654 0.13528462 -0.029931711
0.09620674 0.21547873 -0.20312262 0.28587806 0.22519752 -0.15038691 0.14747451 0.1516214
-0.3949338 -0.07526048 -0.0008846668 0.22768554 -0.046441592 0.36915722 -0.3163611 -0.091422796
0.50954777 0.16632545 0.17144842 -0.25015488 0.27703872 0.19403006 0.27698842 0.02134843
0.13243811 0.14571059 -0.020155113 0.38309315 0.14352244 -0.45033768 -0.26344872 0.21213526
0.08317456 -0.078329116 0.28389245 -0.01753261 0.023044392 0.24067901 -0.3010787 0.36581153
0.58688724 -0.18812442 0.046307925 -0.32052782 0.2973567 0.20081905 -0.0036566271 0.13800864
-0.3806322 -0.13337186 0.16406761 0.29587796 -0.04833976 -0.1591852 0.090474114 0.18072177
-0.0746604 0.17851509 0.19055547 -0.042942014 0.09283176 -0.03566141 0.21526106 0.069931746
0.18474147 0.12101982 -0.2886154 0.37359494 0.38306227 -0.06408247 0.08418152 0.10159584
-0.10300776 -0.31853968 0.19810894 0.3130069 -0.161849 0.46985725 -0.5358511 -0.3864712
-0.04764335 0.15109533 0.14586999 -0.012846185 0.1604126 0.3757053 -0.18158625 0.19048977
0.06470011 0.17073254 0.13843101 0.2527312 0.14763233 0.14943169 0.5888412 0.06703033
0.13157672 0.16223955 0.5602356 0.044466272 0.11363146 0.29757917 -0.26233438 0.40634412
0.24772684 -0.1581512 -0.19151892 0.002298342 0.61702365 -0.0060260575 -0.36203656 0.37465346
-0.19499218 0.026502715 0.21386446 0.0738244 0.43365195 -0.29551247 0.44368088 0.10342868
-0.54001564 0.21024346 0.22029722 0.0449885 0.15000731 -0.33236015 0.12061952 0.07508492
0.20517814 0.2361835 0.30259195 0.25054514 0.17207666 -0.27215213 0.087162584 0.20155498
0.082517795 -0.20942062 -0.41922325 -0.25143936 -0.14998455 0.29943722 0.031276207 0.030049963

fc3.bias f4 [4]
00000000: e6dc 903e 2b40 813e 547d 543e 0eac 2b3e
0.28293532 0.2524427 0.20750934 0.16764852
